…
{'env': <gym.envs.classic_control.continuous_mountain_car.Continuous_MountainCarEnv object at 0x10ab49a90>, 'action_dimension': 1, 'input_dim': 2, 'score_required_to_win': 90, 'average_score_required_to_win': 90.0, 'seed': 1, 'gamma': 0.99, 'batch_size': 256, 'target_network_update': 10, 'total_steps_so_far': 0, 'max_episode_length': 1000, 'save_model_frequency': 100, 'learning_rate_actor': 0.0003, 'learning_rate_critic': 0.002, 'gradient_clipping_norm': 5, 'polyac': 0.995, 'steps_between_learning_steps': 20, 'actor_noise_scale': 0.1, 'noise': <utilities.OU_Noise object at 0x12e42c080>, 'memory_size': 1000000, 'replay_memory': deque([], maxlen=1000000), 'device': device(type='cpu'), 'actor_net': ActorDDPG(
  (dense_layers): Sequential(
    (0): Linear(in_features=2, out_features=20, bias=True)
    (1): BatchNorm1d(20, eps=1e-05, momentum=0.1, affine=True, track_running_stats=True)
    (2): ReLU6()
    (3): Linear(in_features=20, out_features=1, bias=True)
    (4): Tanh()
  )
), 'critic_net': CriticDDPG(
  (dense_base_layers): Sequential(
    (0): Linear(in_features=2, out_features=20, bias=True)
    (1): BatchNorm1d(20, eps=1e-05, momentum=0.1, affine=True, track_running_stats=True)
    (2): ReLU()
  )
  (dense_layers): Sequential(
    (0): Linear(in_features=21, out_features=20, bias=True)
    (1): BatchNorm1d(20, eps=1e-05, momentum=0.1, affine=True, track_running_stats=True)
    (2): ReLU6()
    (3): Linear(in_features=20, out_features=1, bias=True)
  )
), 'actor_net_target': ActorDDPG(
  (dense_layers): Sequential(
    (0): Linear(in_features=2, out_features=20, bias=True)
    (1): BatchNorm1d(20, eps=1e-05, momentum=0.1, affine=True, track_running_stats=True)
    (2): ReLU6()
    (3): Linear(in_features=20, out_features=1, bias=True)
    (4): Tanh()
  )
), 'critic_net_target': CriticDDPG(
  (dense_base_layers): Sequential(
    (0): Linear(in_features=2, out_features=20, bias=True)
    (1): BatchNorm1d(20, eps=1e-05, momentum=0.1, affine=True, track_running_stats=True)
    (2): ReLU()
  )
  (dense_layers): Sequential(
    (0): Linear(in_features=21, out_features=20, bias=True)
    (1): BatchNorm1d(20, eps=1e-05, momentum=0.1, affine=True, track_running_stats=True)
    (2): ReLU6()
    (3): Linear(in_features=20, out_features=1, bias=True)
  )
), 'optimizer_actor': Adam (
Parameter Group 0
    amsgrad: False
    betas: (0.9, 0.999)
    eps: 0.0001
    lr: 0.0003
    weight_decay: 0
), 'optimizer_critic': Adam (
Parameter Group 0
    amsgrad: False
    betas: (0.9, 0.999)
    eps: 0.0001
    lr: 0.002
    weight_decay: 0
)}
--------------------------------------------------------------------------------
…
